…
ottleneck(in_channel=256, depth=256, stride=1), Bottleneck(in_channel=256, depth=256, stride=1), Bottleneck(in_channel=256, depth=256, stride=1), Bottleneck(in_channel=256, depth=256, stride=1), Bottleneck(in_channel=256, depth=256, stride=1)], [Bottleneck(in_channel=256, depth=512, stride=2), Bottleneck(in_channel=512, depth=512, stride=1), Bottleneck(in_channel=512, depth=512, stride=1)]]
-------------------------------------------
/home/tony/anaconda3/envs/sam_env2/bin/python /home/tony/SAM-master/models/encoders/psp_encoders.py 
GradualStyleEncoder(
  (input_layer): Sequential(
    (0): Conv2d(4, 64, kernel_size=(3, 3), stride=(1, 1), padding=(1, 1), bias=False)
    (1): BatchNorm2d(64, eps=1e-05, momentum=0.1, affine=True, track_running_stats=True)
    (2): PReLU(num_parameters=64)
  )
  (body): Sequential(
    (0): bottleneck_IR_SE(
      (shortcut_layer): MaxPool2d(kernel_size=1, stride=2, padding=0, dilation=1, ceil_mode=False)
      (res_layer): Sequential(
        (0): BatchNorm2d(64, eps=1e-05, momentum=0.1, affine=True, track_running_stats=True)
        (1): Conv2d(64, 64, kernel_size=(3, 3), stride=(1, 1), padding=(1, 1), bias=False)
        (2): PReLU(num_parameters=64)
        (3): Conv2d(64, 64, kernel_size=(3, 3), stride=(2, 2), padding=(1, 1), bias=False)
        (4): BatchNorm2d(64, eps=1e-05, momentum=0.1, affine=True, track_running_stats=True)
        (5): SEModule(
          (avg_pool): AdaptiveAvgPool2d(output_size=1)
          (fc1): Conv2d(64, 4, kernel_size=(1, 1), stride=(1, 1), bias=False)
          (relu): ReLU(inplace=True)
          (fc2): Conv2d(4, 64, kernel_size=(1, 1), stride=(1, 1), bias=False)
          (sigmoid): Sigmoid()
        )
      )
    )
    (1): bottleneck_IR_SE(
      (shortcut_layer): MaxPool2d(kernel_size=1, stride=1, padding=0, dilation=1, ceil_mode=False)
      (res_layer): Sequential(
        (0): BatchNorm2d(64, eps=1e-05, momentum=0.1, affine=True, track_running_stats=True)
        (1): Conv2d(64, 64, kernel_size=(3, 3), stride=(1, 1), padding=(1, 1), bias=False)
        (2): PReLU(num_parameters=64)
        (3): Conv2d(64, 64, kernel_size=(3, 3), stride=(1, 1), padding=(1, 1), bias=False)
        (4): BatchNorm2d(64, eps=1e-05, momentum=0.1, affine=True, track_running_stats=True)
        (5): SEModule(
          (avg_pool): AdaptiveAvgPool2d(output_size=1)
          (fc1): Conv2d(64, 4, kernel_size=(1, 1), stride=(1, 1), bias=False)
          (relu): ReLU(inplace=True)
          (fc2): Conv2d(4, 64, kernel_size=(1, 1), stride=(1, 1), bias=False)
          (sigmoid): Sigmoid()
        )
      )
    )
    (2): bottleneck_IR_SE(
      (shortcut_layer): MaxPool2d(kernel_size=1, stride=1, padding=0, dilation=1, ceil_mode=False)
      (res_layer): Sequential(
        (0): BatchNorm2d(64, eps=1e-05, momentum=0.1, affine=True, track_running_stats=True)
        (1): Conv2d(64, 64, kernel_size=(3, 3), stride=(1, 1), padding=(1, 1), bias=False)
        (2): PReLU(num_parameters=64)
        (3): Conv2d(64, 64, kernel_size=(3, 3), stride=(1, 1), padding=(1, 1), bias=False)
        (4): BatchNorm2d(64, eps=1e-05, momentum=0.1, affine=True, track_running_stats=True)
        (5): SEModule(
          (avg_pool): AdaptiveAvgPool2d(output_size=1)
          (fc1): Conv2d(64, 4, kernel_size=(1, 1), stride=(1, 1), bias=False)
          (relu): ReLU(inplace=True)
          (fc2): Conv2d(4, 64, kernel_size=(1, 1), stride=(1, 1), bias=False)
          (sigmoid): Sigmoid()
        )
      )
    )
    (3): bottleneck_IR_SE(
      (shortcut_layer): Sequential(
        (0): Conv2d(64, 128, kernel_size=(1, 1), stride=(2, 2), bias=False)
        (1): BatchNorm2d(128, eps=1e-05, momentum=0.1, affine=True, track_running_stats=True)
      )
      (res_layer): Sequential(
        (0): BatchNorm2d(64, eps=1e-05, momentum=0.1, affine=True, track_running_stats=True)
        (1): Conv2d(64, 128, kernel_size=(3, 3), stride=(1, 1), padding=(1, 1), bias=False)
        (2): PReLU(num_parameters=128)
        (3): Conv2d(128, 128, kernel_size=(3, 3), stride=(2, 2), padding=(1, 1), bias=False)
        (4): BatchNorm2d(128, eps=1e-05, momentum=0.1, affine=True, track_running_stats=True)
        (5): SEModule(
          (avg_pool): AdaptiveAvgPool2d(output_size=1)
          (fc1): Conv2d(128, 8, kernel_size=(1, 1), stride=(1, 1), bias=False)
          (relu): ReLU(inplace=True)
          (fc2): Conv2d(8, 128, kernel_size=(1, 1), stride=(1, 1), bias=False)
          (sigmoid): Sigmoid()
        )
      )
    )
    (4): bottleneck_IR_SE(
      (shortcut_layer): MaxPool2d(kernel_size=1, stride=1, padding=0, dilation=1, ceil_mode=False)
      (res_layer): Sequential(
        (0): BatchNorm2d(128, eps=1e-05, momentum=0.1, affine=True, track_running_stats=True)
        (1): Conv2d(128, 128, kernel_size=(3, 3), stride=(1, 1), padding=(1, 1), bias=False)
        (2): PReLU(num_parameters=128)
        (3): Conv2d(128, 128, kernel_size=(3, 3), stride=(1, 1), padding=(1, 1), bias=False)
        (4): BatchNorm2d(128, eps=1e-05, momentum=0.1, affine=True, track_running_stats=True)
        (5): SEModule(
          (avg_pool): AdaptiveAvgPool2d(output_size=1)
          (fc1): Conv2d(128, 8, kernel_size=(1, 1), stride=(1, 1), bias=False)
          (relu): ReLU(inplace=True)
          (fc2): Conv2d(8, 128, kernel_size=(1, 1), stride=(1, 1), bias=False)
          (sigmoid): Sigmoid()
        )
      )
    )
    (5): bottleneck_IR_SE(
      (shortcut_layer): MaxPool2d(kernel_size=1, stride=1, padding=0, dilation=1, ceil_mode=False)
      (res_layer): Sequential(
        (0): BatchNorm2d(128, eps=1e-05, momentum=0.1, affine=True, track_running_stats=True)
        (1): Conv2d(128, 128, kernel_size=(3, 3), stride=(1, 1), padding=(1, 1), bias=False)
        (2): PReLU(num_parameters=128)
        (3): Conv2d(128, 128, kernel_size=(3, 3), stride=(1, 1), padding=(1, 1), bias=False)
        (4): BatchNorm2d(128, eps=1e-05, momentum=0.1, affine=True, track_running_stats=True)
        (5): SEModule(
          (avg_pool): AdaptiveAvgPool2d(output_size=1)
          (fc1): Conv2d(128, 8, kernel_size=(1, 1), stride=(1, 1), bias=False)
          (relu): ReLU(inplace=True)
          (fc2): Conv2d(8, 128, kernel_size=(1, 1), stride=(1, 1), bias=False)
          (sigmoid): Sigmoid()
        )
      )
    )
    (6): bottleneck_IR_SE(
      (shortcut_layer): MaxPool2d(kernel_size=1, stride=1, padding=0, dilation=1, ceil_mode=False)
      (res_layer): Sequential(
        (0): BatchNorm2d(128, eps=1e-05, momentum=0.1, affine=True, track_running_stats=True)
        (1): Conv2d(128, 128, kernel_size=(3, 3), stride=(1, 1), padding=(1, 1), bias=False)
        (2): PReLU(num_parameters=128)
        (3): Conv2d(128, 128, kernel_size=(3, 3), stride=(1, 1), padding=(1, 1), bias=False)
        (4): BatchNorm2d(128, eps=1e-05, momentum=0.1, affine=True, track_running_stats=True)
        (5): SEModule(
          (avg_pool): AdaptiveAvgPool2d(output_size=1)
          (fc1): Conv2d(128, 8, kernel_size=(1, 1), stride=(1, 1), bias=False)
          (relu): ReLU(inplace=True)
          (fc2): Conv2d(8, 128, kernel_size=(1, 1), stride=(1, 1), bias=False)
          (sigmoid): Sigmoid()
        )
      )
    )
    (7): bottleneck_IR_SE(
      (shortcut_layer): Sequential(
        (0): Conv2d(128, 256, kernel_size=(1, 1), stride=(2, 2), bias=False)
        (1): BatchNorm2d(256, eps=1e-05, momentum=0.1, affine=True, track_running_stats=True)
      )
      (res_layer): Sequential(
        (0): BatchNorm2d(128, eps=1e-05, momentum=0.1, affine=True, track_running_stats=True)
        (1): Conv2d(128, 256, kernel_size=(3, 3), stride=(1, 1), padding=(1, 1), bias=False)
        (2): PReLU(num_parameters=256)
        (3): Conv2d(256, 256, kernel_size=(3, 3), stride=(2, 2), padding=(1, 1), bias=False)
        (4): BatchNorm2d(256, eps=1e-05, momentum=0.1, affine=True, track_running_stats=True)
        (5): SEModule(
          (avg_pool): AdaptiveAvgPool2d(output_size=1)
          (fc1): Conv2d(256, 16, kernel_size=(1, 1), stride=(1, 1), bias=False)
          (relu): ReLU(inplace=True)
          (fc2): Conv2d(16, 256, kernel_size=(1, 1), stride=(1, 1), bias=False)
          (sigmoid): Sigmoid()
        )
      )
    )
    (8): bottleneck_IR_SE(
      (shortcut_layer): MaxPool2d(kernel_size=1, stride=1, padding=0, dilation=1, ceil_mode=False)
      (res_layer): Sequential(
        (0): BatchNorm2d(256, eps=1e-05, momentum=0.1, affine=True, track_running_stats=True)
        (1): Conv2d(256, 256, kernel_size=(3, 3), stride=(1, 1), padding=(1, 1), bias=False)
        (2): PReLU(num_parameters=256)
        (3): Conv2d(256, 256, kernel_size=(3, 3), stride=(1, 1), padding=(1, 1), bias=False)
        (4): BatchNorm2d(256, eps=1e-05, momentum=0.1, affine=True, track_running_stats=True)
        (5): SEModule(
          (avg_pool): AdaptiveAvgPool2d(output_size=1)
          (fc1): Conv2d(256, 16, kernel_size=(1, 1), stride=(1, 1), bias=False)
          (relu): ReLU(inplace=True)
          (fc2): Conv2d(16, 256, kernel_size=(1, 1), stride=(1, 1), bias=False)
          (sigmoid): Sigmoid()
        )
      )
    )
    (9): bottleneck_IR_SE(
      (shortcut_layer): MaxPool2d(kernel_size=1, stride=1, padding=0, dilation=1, ceil_mode=False)
      (res_layer): Sequential(
        (0): BatchNorm2d(256, eps=1e-05, momentum=0.1, affine=True, track_running_stats=True)
        (1): Conv2d(256, 256, kernel_size=(3, 3), stride=(1, 1), padding=(1, 1), bias=False)
        (2): PReLU(num_parameters=256)
        (3): Conv2d(256, 256, kernel_size=(3, 3), stride=(1, 1), padding=(1, 1), bias=False)
        (4): BatchNorm2d(256, eps=1e-05, momentum=0.1, affine=True, track_running_stats=True)
        (5): SEModule(
          (avg_pool): AdaptiveAvgPool2d(output_size=1)
          (fc1): Conv2d(256, 16, kernel_size=(1, 1), stride=(1, 1), bias=False)
          (relu): ReLU(inplace=True)
          (fc2): Conv2d(16, 256, kernel_size=(1, 1), stride=(1, 1), bias=False)
          (sigmoid): Sigmoid()
        )
      )
    )
    (10): bottleneck_IR_SE(
      (shortcut_layer): MaxPool2d(kernel_size=1, stride=1, padding=0, dilation=1, ceil_mode=False)
      (res_layer): Sequential(
        (0): BatchNorm2d(256, eps=1e-05, momentum=0.1, affine=True, track_running_stats=True)
        (1): Conv2d(256, 256, kernel_size=(3, 3), stride=(1, 1), padding=(1, 1), bias=False)
        (2): PReLU(num_parameters=256)
        (3): Conv2d(256, 256, kernel_size=(3, 3), stride=(1, 1), padding=(1, 1), bias=False)
        (4): BatchNorm2d(256, eps=1e-05, momentum=0.1, affine=True, track_running_stats=True)
        (5): SEModule(
          (avg_pool): AdaptiveAvgPool2d(output_size=1)
          (fc1): Conv2d(256, 16, kernel_size=(1, 1), stride=(1, 1), bias=False)
          (relu): ReLU(inplace=True)
          (fc2): Conv2d(16, 256, kernel_size=(1, 1), stride=(1, 1), bias=False)
          (sigmoid): Sigmoid()
        )
      )
    )
    (11): bottleneck_IR_SE(
      (shortcut_layer): MaxPool2d(kernel_size=1, stride=1, padding=0, dilation=1, ceil_mode=False)
      (res_layer): Sequential(
        (0): BatchNorm2d(256, eps=1e-05, momentum=0.1, affine=True, track_running_stats=True)
        (1): Conv2d(256, 256, kernel_size=(3, 3), stride=(1, 1), padding=(1, 1), bias=False)
        (2): PReLU(num_parameters=256)
        (3): Conv2d(256, 256, kernel_size=(3, 3), stride=(1, 1), padding=(1, 1), bias=False)
        (4): BatchNorm2d(256, eps=1e-05, momentum=0.1, affine=True, track_running_stats=True)
        (5): SEModule(
          (avg_pool): AdaptiveAvgPool2d(output_size=1)
          (fc1): Conv2d(256, 16, kernel_size=(1, 1), stride=(1, 1), bias=False)
          (relu): ReLU(inplace=True)
          (fc2): Conv2d(16, 256, kernel_size=(1, 1), stride=(1, 1), bias=False)
          (sigmoid): Sigmoid()
        )
      )
    )
    (12): bottleneck_IR_SE(
      (shortcut_layer): MaxPool2d(kernel_size=1, stride=1, padding=0, dilation=1, ceil_mode=False)
      (res_layer): Sequential(
        (0): BatchNorm2d(256, eps=1e-05, momentum=0.1, affine=True, track_running_stats=True)
        (1): Conv2d(256, 256, kernel_size=(3, 3), stride=(1, 1), padding=(1, 1), bias=False)
        (2): PReLU(num_parameters=256)
        (3): Conv2d(256, 256, kernel_size=(3, 3), stride=(1, 1), padding=(1, 1), bias=False)
        (4): BatchNorm2d(256, eps=1e-05, momentum=0.1, affine=True, track_running_stats=True)
        (5): SEModule(
          (avg_pool): AdaptiveAvgPool2d(output_size=1)
          (fc1): Conv2d(256, 16, kernel_size=(1, 1), stride=(1, 1), bias=False)
          (relu): ReLU(inplace=True)
          (fc2): Conv2d(16, 256, kernel_size=(1, 1), stride=(1, 1), bias=False)
          (sigmoid): Sigmoid()
        )
      )
    )
    (13): bottleneck_IR_SE(
      (shortcut_layer): MaxPool2d(kernel_size=1, stride=1, padding=0, dilation=1, ceil_mode=False)
      (res_layer): Sequential(
        (0): BatchNorm2d(256, eps=1e-05, momentum=0.1, affine=True, track_running_stats=True)
        (1): Conv2d(256, 256, kernel_size=(3, 3), stride=(1, 1), padding=(1, 1), bias=False)
        (2): PReLU(num_parameters=256)
        (3): Conv2d(256, 256, kernel_size=(3, 3), stride=(1, 1), padding=(1, 1), bias=False)
        (4): BatchNorm2d(256, eps=1e-05, momentum=0.1, affine=True, track_running_stats=True)
        (5): SEModule(
          (avg_pool): AdaptiveAvgPool2d(output_size=1)
          (fc1): Conv2d(256, 16, kernel_size=(1, 1), stride=(1, 1), bias=False)
          (relu): ReLU(inplace=True)
          (fc2): Conv2d(16, 256, kernel_size=(1, 1), stride=(1, 1), bias=False)
          (sigmoid): Sigmoid()
        )
      )
    )
    (14): bottleneck_IR_SE(
      (shortcut_layer): MaxPool2d(kernel_size=1, stride=1, padding=0, dilation=1, ceil_mode=False)
      (res_layer): Sequential(
        (0): BatchNorm2d(256, eps=1e-05, momentum=0.1, affine=True, track_running_stats=True)
        (1): Conv2d(256, 256, kernel_size=(3, 3), stride=(1, 1), padding=(1, 1), bias=False)
        (2): PReLU(num_parameters=256)
        (3): Conv2d(256, 256, kernel_size=(3, 3), stride=(1, 1), padding=(1, 1), bias=False)
        (4): BatchNorm2d(256, eps=1e-05, momentum=0.1, affine=True, track_running_stats=True)
        (5): SEModule(
          (avg_pool): AdaptiveAvgPool2d(output_size=1)
          (fc1): Conv2d(256, 16, kernel_size=(1, 1), stride=(1, 1), bias=False)
          (relu): ReLU(inplace=True)
          (fc2): Conv2d(16, 256, kernel_size=(1, 1), stride=(1, 1), bias=False)
          (sigmoid): Sigmoid()
        )
      )
    )
    (15): bottleneck_IR_SE(
      (shortcut_layer): MaxPool2d(kernel_size=1, stride=1, padding=0, dilation=1, ceil_mode=False)
      (res_layer): Sequential(
        (0): BatchNorm2d(256, eps=1e-05, momentum=0.1, affine=True, track_running_stats=True)
        (1): Conv2d(256, 256, kernel_size=(3, 3), stride=(1, 1), padding=(1, 1), bias=False)
        (2): PReLU(num_parameters=256)
        (3): Conv2d(256, 256, kernel_size=(3, 3), stride=(1, 1), padding=(1, 1), bias=False)
        (4): BatchNorm2d(256, eps=1e-05, momentum=0.1, affine=True, track_running_stats=True)
        (5): SEModule(
          (avg_pool): AdaptiveAvgPool2d(output_size=1)
          (fc1): Conv2d(256, 16, kernel_size=(1, 1), stride=(1, 1), bias=False)
          (relu): ReLU(inplace=True)
          (fc2): Conv2d(16, 256, kernel_size=(1, 1), stride=(1, 1), bias=False)
          (sigmoid): Sigmoid()
        )
      )
    )
    (16): bottleneck_IR_SE(
      (shortcut_layer): MaxPool2d(kernel_size=1, stride=1, padding=0, dilation=1, ceil_mode=False)
      (res_layer): Sequential(
        (0): BatchNorm2d(256, eps=1e-05, momentum=0.1, affine=True, track_running_stats=True)
        (1): Conv2d(256, 256, kernel_size=(3, 3), stride=(1, 1), padding=(1, 1), bias=False)
        (2): PReLU(num_parameters=256)
        (3): Conv2d(256, 256, kernel_size=(3, 3), stride=(1, 1), padding=(1, 1), bias=False)
        (4): BatchNorm2d(256, eps=1e-05, momentum=0.1, affine=True, track_running_stats=True)
        (5): SEModule(
          (avg_pool): AdaptiveAvgPool2d(output_size=1)
          (fc1): Conv2d(256, 16, kernel_size=(1, 1), stride=(1, 1), bias=False)
          (relu): ReLU(inplace=True)
          (fc2): Conv2d(16, 256, kernel_size=(1, 1), stride=(1, 1), bias=False)
          (sigmoid): Sigmoid()
        )
      )
    )
    (17): bottleneck_IR_SE(
      (shortcut_layer): MaxPool2d(kernel_size=1, stride=1, padding=0, dilation=1, ceil_mode=False)
      (res_layer): Sequential(
        (0): BatchNorm2d(256, eps=1e-05, momentum=0.1, affine=True, track_running_stats=True)
        (1): Conv2d(256, 256, kernel_size=(3, 3), stride=(1, 1), padding=(1, 1), bias=False)
        (2): PReLU(num_parameters=256)
        (3): Conv2d(256, 256, kernel_size=(3, 3), stride=(1, 1), padding=(1, 1), bias=False)
        (4): BatchNorm2d(256, eps=1e-05, momentum=0.1, affine=True, track_running_stats=True)
        (5): SEModule(
          (avg_pool): AdaptiveAvgPool2d(output_size=1)
          (fc1): Conv2d(256, 16, kernel_size=(1, 1), stride=(1, 1), bias=False)
          (relu): ReLU(inplace=True)
          (fc2): Conv2d(16, 256, kernel_size=(1, 1), stride=(1, 1), bias=False)
          (sigmoid): Sigmoid()
        )
      )
    )
    (18): bottleneck_IR_SE(
      (shortcut_layer): MaxPool2d(kernel_size=1, stride=1, padding=0, dilation=1, ceil_mode=False)
      (res_layer): Sequential(
        (0): BatchNorm2d(256, eps=1e-05, momentum=0.1, affine=True, track_running_stats=True)
        (1): Conv2d(256, 256, kernel_size=(3, 3), stride=(1, 1), padding=(1, 1), bias=False)
        (2): PReLU(num_parameters=256)
        (3): Conv2d(256, 256, kernel_size=(3, 3), stride=(1, 1), padding=(1, 1), bias=False)
        (4): BatchNorm2d(256, eps=1e-05, momentum=0.1, affine=True, track_running_stats=True)
        (5): SEModule(
          (avg_pool): AdaptiveAvgPool2d(output_size=1)
          (fc1): Conv2d(256, 16, kernel_size=(1, 1), stride=(1, 1), bias=False)
          (relu): ReLU(inplace=True)
          (fc2): Conv2d(16, 256, kernel_size=(1, 1), stride=(1, 1), bias=False)
          (sigmoid): Sigmoid()
        )
      )
    )
    (19): bottleneck_IR_SE(
      (shortcut_layer): MaxPool2d(kernel_size=1, stride=1, padding=0, dilation=1, ceil_mode=False)
      (res_layer): Sequential(
        (0): BatchNorm2d(256, eps=1e-05, momentum=0.1, affine=True, track_running_stats=True)
        (1): Conv2d(256, 256, kernel_size=(3, 3), stride=(1, 1), padding=(1, 1), bias=False)
        (2): PReLU(num_parameters=256)
        (3): Conv2d(256, 256, kernel_size=(3, 3), stride=(1, 1), padding=(1, 1), bias=False)
        (4): BatchNorm2d(256, eps=1e-05, momentum=0.1, affine=True, track_running_stats=True)
        (5): SEModule(
          (avg_pool): AdaptiveAvgPool2d(output_size=1)
          (fc1): Conv2d(256, 16, kernel_size=(1, 1), stride=(1, 1), bias=False)
          (relu): ReLU(inplace=True)
          (fc2): Conv2d(16, 256, kernel_size=(1, 1), stride=(1, 1), bias=False)
          (sigmoid): Sigmoid()
        )
      )
    )
    (20): bottleneck_IR_SE(
      (shortcut_layer): MaxPool2d(kernel_size=1, stride=1, padding=0, dilation=1, ceil_mode=False)
      (res_layer): Sequential(
        (0): BatchNorm2d(256, eps=1e-05, momentum=0.1, affine=True, track_running_stats=True)
        (1): Conv2d(256, 256, kernel_size=(3, 3), stride=(1, 1), padding=(1, 1), bias=False)
        (2): PReLU(num_parameters=256)
        (3): Conv2d(256, 256, kernel_size=(3, 3), stride=(1, 1), padding=(1, 1), bias=False)
        (4): BatchNorm2d(256, eps=1e-05, momentum=0.1, affine=True, track_running_stats=True)
        (5): SEModule(
          (avg_pool): AdaptiveAvgPool2d(output_size=1)
          (fc1): Conv2d(256, 16, kernel_size=(1, 1), stride=(1, 1), bias=False)
          (relu): ReLU(inplace=True)
          (fc2): Conv2d(16, 256, kernel_size=(1, 1), stride=(1, 1), bias=False)
          (sigmoid): Sigmoid()
        )
      )
    )
    (21): bottleneck_IR_SE(
      (shortcut_layer): Sequential(
        (0): Conv2d(256, 512, kernel_size=(1, 1), stride=(2, 2), bias=False)
        (1): BatchNorm2d(512, eps=1e-05, momentum=0.1, affine=True, track_running_stats=True)
      )
      (res_layer): Sequential(
        (0): BatchNorm2d(256, eps=1e-05, momentum=0.1, affine=True, track_running_stats=True)
        (1): Conv2d(256, 512, kernel_size=(3, 3), stride=(1, 1), padding=(1, 1), bias=False)
        (2): PReLU(num_parameters=512)
        (3): Conv2d(512, 512, kernel_size=(3, 3), stride=(2, 2), padding=(1, 1), bias=False)
        (4): BatchNorm2d(512, eps=1e-05, momentum=0.1, affine=True, track_running_stats=True)
        (5): SEModule(
          (avg_pool): AdaptiveAvgPool2d(output_size=1)
          (fc1): Conv2d(512, 32, kernel_size=(1, 1), stride=(1, 1), bias=False)
          (relu): ReLU(inplace=True)
          (fc2): Conv2d(32, 512, kernel_size=(1, 1), stride=(1, 1), bias=False)
          (sigmoid): Sigmoid()
        )
      )
    )
    (22): bottleneck_IR_SE(
      (shortcut_layer): MaxPool2d(kernel_size=1, stride=1, padding=0, dilation=1, ceil_mode=False)
      (res_layer): Sequential(
        (0): BatchNorm2d(512, eps=1e-05, momentum=0.1, affine=True, track_running_stats=True)
        (1): Conv2d(512, 512, kernel_size=(3, 3), stride=(1, 1), padding=(1, 1), bias=False)
        (2): PReLU(num_parameters=512)
        (3): Conv2d(512, 512, kernel_size=(3, 3), stride=(1, 1), padding=(1, 1), bias=False)
        (4): BatchNorm2d(512, eps=1e-05, momentum=0.1, affine=True, track_running_stats=True)
        (5): SEModule(
          (avg_pool): AdaptiveAvgPool2d(output_size=1)
          (fc1): Conv2d(512, 32, kernel_size=(1, 1), stride=(1, 1), bias=False)
          (relu): ReLU(inplace=True)
          (fc2): Conv2d(32, 512, kernel_size=(1, 1), stride=(1, 1), bias=False)
          (sigmoid): Sigmoid()
        )
      )
    )
    (23): bottleneck_IR_SE(
      (shortcut_layer): MaxPool2d(kernel_size=1, stride=1, padding=0, dilation=1, ceil_mode=False)
      (res_layer): Sequential(
        (0): BatchNorm2d(512, eps=1e-05, momentum=0.1, affine=True, track_running_stats=True)
        (1): Conv2d(512, 512, kernel_size=(3, 3), stride=(1, 1), padding=(1, 1), bias=False)
        (2): PReLU(num_parameters=512)
        (3): Conv2d(512, 512, kernel_size=(3, 3), stride=(1, 1), padding=(1, 1), bias=False)
        (4): BatchNorm2d(512, eps=1e-05, momentum=0.1, affine=True, track_running_stats=True)
        (5): SEModule(
          (avg_pool): AdaptiveAvgPool2d(output_size=1)
          (fc1): Conv2d(512, 32, kernel_size=(1, 1), stride=(1, 1), bias=False)
          (relu): ReLU(inplace=True)
          (fc2): Conv2d(32, 512, kernel_size=(1, 1), stride=(1, 1), bias=False)
          (sigmoid): Sigmoid()
        )
      )
    )
  )
  (styles): ModuleList(
    (0): GradualStyleBlock(
      (convs): Sequential(
        (0): Conv2d(512, 512, kernel_size=(3, 3), stride=(2, 2), padding=(1, 1))
        (1): LeakyReLU(negative_slope=0.01)
        (2): Conv2d(512, 512, kernel_size=(3, 3), stride=(2, 2), padding=(1, 1))
        (3): LeakyReLU(negative_slope=0.01)
        (4): Conv2d(512, 512, kernel_size=(3, 3), stride=(2, 2), padding=(1, 1))
        (5): LeakyReLU(negative_slope=0.01)
        (6): Conv2d(512, 512, kernel_size=(3, 3), stride=(2, 2), padding=(1, 1))
        (7): LeakyReLU(negative_slope=0.01)
      )
      (linear): EqualLinear(512, 512)
    )
    (1): GradualStyleBlock(
      (convs): Sequential(
        (0): Conv2d(512, 512, kernel_size=(3, 3), stride=(2, 2), padding=(1, 1))
        (1): LeakyReLU(negative_slope=0.01)
        (2): Conv2d(512, 512, kernel_size=(3, 3), stride=(2, 2), padding=(1, 1))
        (3): LeakyReLU(negative_slope=0.01)
        (4): Conv2d(512, 512, kernel_size=(3, 3), stride=(2, 2), padding=(1, 1))
        (5): LeakyReLU(negative_slope=0.01)
        (6): Conv2d(512, 512, kernel_size=(3, 3), stride=(2, 2), padding=(1, 1))
        (7): LeakyReLU(negative_slope=0.01)
      )
      (linear): EqualLinear(512, 512)
    )
    (2): GradualStyleBlock(
      (convs): Sequential(
        (0): Conv2d(512, 512, kernel_size=(3, 3), stride=(2, 2), padding=(1, 1))
        (1): LeakyReLU(negative_slope=0.01)
        (2): Conv2d(512, 512, kernel_size=(3, 3), stride=(2, 2), padding=(1, 1))
        (3): LeakyReLU(negative_slope=0.01)
        (4): Conv2d(512, 512, kernel_size=(3, 3), stride=(2, 2), padding=(1, 1))
        (5): LeakyReLU(negative_slope=0.01)
        (6): Conv2d(512, 512, kernel_size=(3, 3), stride=(2, 2), padding=(1, 1))
        (7): LeakyReLU(negative_slope=0.01)
      )
      (linear): EqualLinear(512, 512)
    )
    (3): GradualStyleBlock(
      (convs): Sequential(
        (0): Conv2d(512, 512, kernel_size=(3, 3), stride=(2, 2), padding=(1, 1))
        (1): LeakyReLU(negative_slope=0.01)
        (2): Conv2d(512, 512, kernel_size=(3, 3), stride=(2, 2), padding=(1, 1))
        (3): LeakyReLU(negative_slope=0.01)
        (4): Conv2d(512, 512, kernel_size=(3, 3), stride=(2, 2), padding=(1, 1))
        (5): LeakyReLU(negative_slope=0.01)
        (6): Conv2d(512, 512, kernel_size=(3, 3), stride=(2, 2), padding=(1, 1))
        (7): LeakyReLU(negative_slope=0.01)
        (8): Conv2d(512, 512, kernel_size=(3, 3), stride=(2, 2), padding=(1, 1))
        (9): LeakyReLU(negative_slope=0.01)
      )
      (linear): EqualLinear(512, 512)
    )
    (4): GradualStyleBlock(
      (convs): Sequential(
        (0): Conv2d(512, 512, kernel_size=(3, 3), stride=(2, 2), padding=(1, 1))
        (1): LeakyReLU(negative_slope=0.01)
        (2): Conv2d(512, 512, kernel_size=(3, 3), stride=(2, 2), padding=(1, 1))
        (3): LeakyReLU(negative_slope=0.01)
        (4): Conv2d(512, 512, kernel_size=(3, 3), stride=(2, 2), padding=(1, 1))
        (5): LeakyReLU(negative_slope=0.01)
        (6): Conv2d(512, 512, kernel_size=(3, 3), stride=(2, 2), padding=(1, 1))
        (7): LeakyReLU(negative_slope=0.01)
        (8): Conv2d(512, 512, kernel_size=(3, 3), stride=(2, 2), padding=(1, 1))
        (9): LeakyReLU(negative_slope=0.01)
      )
      (linear): EqualLinear(512, 512)
    )
    (5): GradualStyleBlock(
      (convs): Sequential(
        (0): Conv2d(512, 512, kernel_size=(3, 3), stride=(2, 2), padding=(1, 1))
        (1): LeakyReLU(negative_slope=0.01)
        (2): Conv2d(512, 512, kernel_size=(3, 3), stride=(2, 2), padding=(1, 1))
        (3): LeakyReLU(negative_slope=0.01)
        (4): Conv2d(512, 512, kernel_size=(3, 3), stride=(2, 2), padding=(1, 1))
        (5): LeakyReLU(negative_slope=0.01)
        (6): Conv2d(512, 512, kernel_size=(3, 3), stride=(2, 2), padding=(1, 1))
        (7): LeakyReLU(negative_slope=0.01)
        (8): Conv2d(512, 512, kernel_size=(3, 3), stride=(2, 2), padding=(1, 1))
        (9): LeakyReLU(negative_slope=0.01)
      )
      (linear): EqualLinear(512, 512)
    )
    (6): GradualStyleBlock(
      (convs): Sequential(
        (0): Conv2d(512, 512, kernel_size=(3, 3), stride=(2, 2), padding=(1, 1))
        (1): LeakyReLU(negative_slope=0.01)
        (2): Conv2d(512, 512, kernel_size=(3, 3), stride=(2, 2), padding=(1, 1))
        (3): LeakyReLU(negative_slope=0.01)
        (4): Conv2d(512, 512, kernel_size=(3, 3), stride=(2, 2), padding=(1, 1))
        (5): LeakyReLU(negative_slope=0.01)
        (6): Conv2d(512, 512, kernel_size=(3, 3), stride=(2, 2), padding=(1, 1))
        (7): LeakyReLU(negative_slope=0.01)
        (8): Conv2d(512, 512, kernel_size=(3, 3), stride=(2, 2), padding=(1, 1))
        (9): LeakyReLU(negative_slope=0.01)
      )
      (linear): EqualLinear(512, 512)
    )
    (7): GradualStyleBlock(
      (convs): Sequential(
        (0): Conv2d(512, 512, kernel_size=(3, 3), stride=(2, 2), padding=(1, 1))
        (1): LeakyReLU(negative_slope=0.01)
        (2): Conv2d(512, 512, kernel_size=(3, 3), stride=(2, 2), padding=(1, 1))
        (3): LeakyReLU(negative_slope=0.01)
        (4): Conv2d(512, 512, kernel_size=(3, 3), stride=(2, 2), padding=(1, 1))
        (5): LeakyReLU(negative_slope=0.01)
        (6): Conv2d(512, 512, kernel_size=(3, 3), stride=(2, 2), padding=(1, 1))
        (7): LeakyReLU(negative_slope=0.01)
        (8): Conv2d(512, 512, kernel_size=(3, 3), stride=(2, 2), padding=(1, 1))
        (9): LeakyReLU(negative_slope=0.01)
        (10): Conv2d(512, 512, kernel_size=(3, 3), stride=(2, 2), padding=(1, 1))
        (11): LeakyReLU(negative_slope=0.01)
      )
      (linear): EqualLinear(512, 512)
    )
    (8): GradualStyleBlock(
      (convs): Sequential(
        (0): Conv2d(512, 512, kernel_size=(3, 3), stride=(2, 2), padding=(1, 1))
        (1): LeakyReLU(negative_slope=0.01)
        (2): Conv2d(512, 512, kernel_size=(3, 3), stride=(2, 2), padding=(1, 1))
        (3): LeakyReLU(negative_slope=0.01)
        (4): Conv2d(512, 512, kernel_size=(3, 3), stride=(2, 2), padding=(1, 1))
        (5): LeakyReLU(negative_slope=0.01)
        (6): Conv2d(512, 512, kernel_size=(3, 3), stride=(2, 2), padding=(1, 1))
        (7): LeakyReLU(negative_slope=0.01)
        (8): Conv2d(512, 512, kernel_size=(3, 3), stride=(2, 2), padding=(1, 1))
        (9): LeakyReLU(negative_slope=0.01)
        (10): Conv2d(512, 512, kernel_size=(3, 3), stride=(2, 2), padding=(1, 1))
        (11): LeakyReLU(negative_slope=0.01)
      )
      (linear): EqualLinear(512, 512)
    )
    (9): GradualStyleBlock(
      (convs): Sequential(
        (0): Conv2d(512, 512, kernel_size=(3, 3), stride=(2, 2), padding=(1, 1))
        (1): LeakyReLU(negative_slope=0.01)
        (2): Conv2d(512, 512, kernel_size=(3, 3), stride=(2, 2), padding=(1, 1))
        (3): LeakyReLU(negative_slope=0.01)
        (4): Conv2d(512, 512, kernel_size=(3, 3), stride=(2, 2), padding=(1, 1))
        (5): LeakyReLU(negative_slope=0.01)
        (6): Conv2d(512, 512, kernel_size=(3, 3), stride=(2, 2), padding=(1, 1))
        (7): LeakyReLU(negative_slope=0.01)
        (8): Conv2d(512, 512, kernel_size=(3, 3), stride=(2, 2), padding=(1, 1))
        (9): LeakyReLU(negative_slope=0.01)
        (10): Conv2d(512, 512, kernel_size=(3, 3), stride=(2, 2), padding=(1, 1))
        (11): LeakyReLU(negative_slope=0.01)
      )
      (linear): EqualLinear(512, 512)
    )
    (10): GradualStyleBlock(
      (convs): Sequential(
        (0): Conv2d(512, 512, kernel_size=(3, 3), stride=(2, 2), padding=(1, 1))
        (1): LeakyReLU(negative_slope=0.01)
        (2): Conv2d(512, 512, kernel_size=(3, 3), stride=(2, 2), padding=(1, 1))
        (3): LeakyReLU(negative_slope=0.01)
        (4): Conv2d(512, 512, kernel_size=(3, 3), stride=(2, 2), padding=(1, 1))
        (5): LeakyReLU(negative_slope=0.01)
        (6): Conv2d(512, 512, kernel_size=(3, 3), stride=(2, 2), padding=(1, 1))
        (7): LeakyReLU(negative_slope=0.01)
        (8): Conv2d(512, 512, kernel_size=(3, 3), stride=(2, 2), padding=(1, 1))
        (9): LeakyReLU(negative_slope=0.01)
        (10): Conv2d(512, 512, kernel_size=(3, 3), stride=(2, 2), padding=(1, 1))
        (11): LeakyReLU(negative_slope=0.01)
      )
      (linear): EqualLinear(512, 512)
    )
    (11): GradualStyleBlock(
      (convs): Sequential(
        (0): Conv2d(512, 512, kernel_size=(3, 3), stride=(2, 2), padding=(1, 1))
        (1): LeakyReLU(negative_slope=0.01)
        (2): Conv2d(512, 512, kernel_size=(3, 3), stride=(2, 2), padding=(1, 1))
        (3): LeakyReLU(negative_slope=0.01)
        (4): Conv2d(512, 512, kernel_size=(3, 3), stride=(2, 2), padding=(1, 1))
        (5): LeakyReLU(negative_slope=0.01)
        (6): Conv2d(512, 512, kernel_size=(3, 3), stride=(2, 2), padding=(1, 1))
        (7): LeakyReLU(negative_slope=0.01)
        (8): Conv2d(512, 512, kernel_size=(3, 3), stride=(2, 2), padding=(1, 1))
        (9): LeakyReLU(negative_slope=0.01)
        (10): Conv2d(512, 512, kernel_size=(3, 3), stride=(2, 2), padding=(1, 1))
        (11): LeakyReLU(negative_slope=0.01)
      )
      (linear): EqualLinear(512, 512)
    )
    (12): GradualStyleBlock(
      (convs): Sequential(
        (0): Conv2d(512, 512, kernel_size=(3, 3), stride=(2, 2), padding=(1, 1))
        (1): LeakyReLU(negative_slope=0.01)
        (2): Conv2d(512, 512, kernel_size=(3, 3), stride=(2, 2), padding=(1, 1))
        (3): LeakyReLU(negative_slope=0.01)
        (4): Conv2d(512, 512, kernel_size=(3, 3), stride=(2, 2), padding=(1, 1))
        (5): LeakyReLU(negative_slope=0.01)
        (6): Conv2d(512, 512, kernel_size=(3, 3), stride=(2, 2), padding=(1, 1))
        (7): LeakyReLU(negative_slope=0.01)
        (8): Conv2d(512, 512, kernel_size=(3, 3), stride=(2, 2), padding=(1, 1))
        (9): LeakyReLU(negative_slope=0.01)
        (10): Conv2d(512, 512, kernel_size=(3, 3), stride=(2, 2), padding=(1, 1))
        (11): LeakyReLU(negative_slope=0.01)
      )
      (linear): EqualLinear(512, 512)
    )
    (13): GradualStyleBlock(
      (convs): Sequential(
        (0): Conv2d(512, 512, kernel_size=(3, 3), stride=(2, 2), padding=(1, 1))
        (1): LeakyReLU(negative_slope=0.01)
        (2): Conv2d(512, 512, kernel_size=(3, 3), stride=(2, 2), padding=(1, 1))
        (3): LeakyReLU(negative_slope=0.01)
        (4): Conv2d(512, 512, kernel_size=(3, 3), stride=(2, 2), padding=(1, 1))
        (5): LeakyReLU(negative_slope=0.01)
        (6): Conv2d(512, 512, kernel_size=(3, 3), stride=(2, 2), padding=(1, 1))
        (7): LeakyReLU(negative_slope=0.01)
        (8): Conv2d(512, 512, kernel_size=(3, 3), stride=(2, 2), padding=(1, 1))
        (9): LeakyReLU(negative_slope=0.01)
        (10): Conv2d(512, 512, kernel_size=(3, 3), stride=(2, 2), padding=(1, 1))
        (11): LeakyReLU(negative_slope=0.01)
      )
      (linear): EqualLinear(512, 512)
    )
    (14): GradualStyleBlock(
      (convs): Sequential(
        (0): Conv2d(512, 512, kernel_size=(3, 3), stride=(2, 2), padding=(1, 1))
        (1): LeakyReLU(negative_slope=0.01)
        (2): Conv2d(512, 512, kernel_size=(3, 3), stride=(2, 2), padding=(1, 1))
        (3): LeakyReLU(negative_slope=0.01)
        (4): Conv2d(512, 512, kernel_size=(3, 3), stride=(2, 2), padding=(1, 1))
        (5): LeakyReLU(negative_slope=0.01)
        (6): Conv2d(512, 512, kernel_size=(3, 3), stride=(2, 2), padding=(1, 1))
        (7): LeakyReLU(negative_slope=0.01)
        (8): Conv2d(512, 512, kernel_size=(3, 3), stride=(2, 2), padding=(1, 1))
        (9): LeakyReLU(negative_slope=0.01)
        (10): Conv2d(512, 512, kernel_size=(3, 3), stride=(2, 2), padding=(1, 1))
        (11): LeakyReLU(negative_slope=0.01)
      )
      (linear): EqualLinear(512, 512)
    )
    (15): GradualStyleBlock(
      (convs): Sequential(
        (0): Conv2d(512, 512, kernel_size=(3, 3), stride=(2, 2), padding=(1, 1))
        (1): LeakyReLU(negative_slope=0.01)
        (2): Conv2d(512, 512, kernel_size=(3, 3), stride=(2, 2), padding=(1, 1))
        (3): LeakyReLU(negative_slope=0.01)
        (4): Conv2d(512, 512, kernel_size=(3, 3), stride=(2, 2), padding=(1, 1))
        (5): LeakyReLU(negative_slope=0.01)
        (6): Conv2d(512, 512, kernel_size=(3, 3), stride=(2, 2), padding=(1, 1))
        (7): LeakyReLU(negative_slope=0.01)
        (8): Conv2d(512, 512, kernel_size=(3, 3), stride=(2, 2), padding=(1, 1))
        (9): LeakyReLU(negative_slope=0.01)
        (10): Conv2d(512, 512, kernel_size=(3, 3), stride=(2, 2), padding=(1, 1))
        (11): LeakyReLU(negative_slope=0.01)
      )
      (linear): EqualLinear(512, 512)
    )
    (16): GradualStyleBlock(
      (convs): Sequential(
        (0): Conv2d(512, 512, kernel_size=(3, 3), stride=(2, 2), padding=(1, 1))
        (1): LeakyReLU(negative_slope=0.01)
        (2): Conv2d(512, 512, kernel_size=(3, 3), stride=(2, 2), padding=(1, 1))
        (3): LeakyReLU(negative_slope=0.01)
        (4): Conv2d(512, 512, kernel_size=(3, 3), stride=(2, 2), padding=(1, 1))
        (5): LeakyReLU(negative_slope=0.01)
        (6): Conv2d(512, 512, kernel_size=(3, 3), stride=(2, 2), padding=(1, 1))
        (7): LeakyReLU(negative_slope=0.01)
        (8): Conv2d(512, 512, kernel_size=(3, 3), stride=(2, 2), padding=(1, 1))
        (9): LeakyReLU(negative_slope=0.01)
        (10): Conv2d(512, 512, kernel_size=(3, 3), stride=(2, 2), padding=(1, 1))
        (11): LeakyReLU(negative_slope=0.01)
      )
      (linear): EqualLinear(512, 512)
    )
    (17): GradualStyleBlock(
      (convs): Sequential(
        (0): Conv2d(512, 512, kernel_size=(3, 3), stride=(2, 2), padding=(1, 1))
        (1): LeakyReLU(negative_slope=0.01)
        (2): Conv2d(512, 512, kernel_size=(3, 3), stride=(2, 2), padding=(1, 1))
        (3): LeakyReLU(negative_slope=0.01)
        (4): Conv2d(512, 512, kernel_size=(3, 3), stride=(2, 2), padding=(1, 1))
        (5): LeakyReLU(negative_slope=0.01)
        (6): Conv2d(512, 512, kernel_size=(3, 3), stride=(2, 2), padding=(1, 1))
        (7): LeakyReLU(negative_slope=0.01)
        (8): Conv2d(512, 512, kernel_size=(3, 3), stride=(2, 2), padding=(1, 1))
        (9): LeakyReLU(negative_slope=0.01)
        (10): Conv2d(512, 512, kernel_size=(3, 3), stride=(2, 2), padding=(1, 1))
        (11): LeakyReLU(negative_slope=0.01)
      )
      (linear): EqualLinear(512, 512)
    )
  )
  (latlayer1): Conv2d(256, 512, kernel_size=(1, 1), stride=(1, 1))
  (latlayer2): Conv2d(128, 512, kernel_size=(1, 1), stride=(1, 1))
)

Process finished with exit code 0


